data/Tasks.pth (torch, 6919 bytes, 6 tensors)

l1.weight f4 [8, 81]
000000 40 98 bf 3e 21 63 72 3e ce fd 1a 3e 17 3e 0a 3f
       0.37420845 0.23670627 0.15135881 0.5400099
000010 ac d1 c4 bd 10 48 94 bf c0 ef 1b bf c1 43 39 bf
       -0.09610304 -1.1584492 -0.60912704 -0.7236901
000020 dc f9 a0 bc 00 bc 69 bc 9d 66 8d 3c ae 41 a3 3c
       -0.019650392 -0.014266014 0.017260844 0.01992878
000030 8c 31 44 bf b6 83 81 3f 0f a2 fb be 43 f4 3e bf
       -0.766381 1.011832 -0.49147078 -0.74591464
000040 39 10 bb bf 97 60 d8 bd d7 e5 13 3f e6 bc 99 be
       -1.4614326 -0.10565298 0.5777258 -0.3002693
000050 1c 46 54 3e b4 9e c7 be 38 7c 62 3f 13 bd a3 3f
       0.2072987 -0.38988268 0.8847079 1.2792076
000060 33 35 c7 be fb 43 d1 be 53 04 bc 3c 5e 2a 09 3e
       -0.38907775 -0.40872177 0.02295128 0.13395068
000070 dd a0 7d bd d0 24 d4 3a 82 fe 1f 3f 2e df 4f bd
       -0.06192099 0.0016185287 0.62497723 -0.05074995
000080 a6 a9 1d 3f c0 1a 39 3e c8 f5 31 bb 02 18 31 be
       0.6158699 0.1807661 -0.0027154554 -0.17294315
000090 28 d6 d5 3e d1 0e 3f bf 5e 44 f2 3e 94 35 c3 3e
       0.4176495 -0.74631983 0.47317785 0.38126814
0000a0 b5 00 46 bf ae 3e fd 3e 6f fb 5f 3d 1b cf 50 3f
       -0.7734483 0.49461883 0.054683145 0.8156602
0000b0 b0 39 e4 3e 3e af b3 3e 18 8c 56 3f 51 45 88 be
       0.44575262 0.35094637 0.83807516 -0.26615384
0000c0 9e ad 3a be 41 33 e3 3c 40 f8 cc bc bf 00 e6 be
       -0.18230292 0.0277344 -0.025020719 -0.44922444
0000d0 70 5a c2 3e 38 93 7c 3f 23 84 1c be fd 6c e5 bd
       0.37959623 0.9866214 -0.15284781 -0.112024285
0000e0 44 0c aa 3f 9b c9 4c be 5d 66 a8 3c 48 b5 04 3f
       1.3284993 -0.19998781 0.020556623 0.51839113
0000f0 fc 8a 3f bd 00 2e c2 3e 3d af 75 be fe 48 75 3e
       -0.046763405 0.3792572 -0.2399263 0.23953626
000100 91 90 c2 3e 87 a9 0c 3f f2 cf d9 3e f4 ae 39 3f
       0.3800092 0.5494618 0.42541462 0.7253258
000110 ef 3e 80 bf 20 48 92 3f d6 93 eb 3e 49 b9 c6 bd
       -1.0019206 1.1428261 0.46011227 -0.09703309
000120 fa 33 65 3f 54 fe ed 3e 7c 23 6e bd 60 18 48 bf
       0.89532435 0.464831 -0.05813931 -0.78162193
000130 60 61 5e 3f 4c 8f 9f bd 6d 93 bb be 7d 86 54 3f
       0.8686733 -0.077910036 -0.36635914 0.8301771
000140 11 44 4d be 95 e6 95 be 6c 65 3d 3e e2 ae e6 3e
       -0.20045497 -0.29277483 0.1849572 0.450553
000150 58 d2 e5 3e 29 88 3d 3e 5f 6d 7e bf 0f e0 30 bf
       0.44887042 0.18508972 -0.9938564 -0.69091886
000160 20 0d 33 bf 00 01 5b 3e 76 bb 97 3e 6d b3 a5 3e
       -0.699419 0.213871 0.2963521 0.32363454
000170 67 18 4f 3e 92 ed f2 be eb cb 62 3f 7f 81 37 bf
       0.20224153 -0.47446877 0.88592404 -0.7168197
000180 e8 bc b7 be 7d 07 a7 3f 1c b2 9c be f4 d0 5f bf
       -0.35886312 1.304916 -0.30604637 -0.8742821
000190 49 4f a8 3f ca 1b 8c 3d 6d 5d ae be 8c 44 04 3f
       1.3149196 0.06841238 -0.34055653 0.51667094
0001a0 87 eb 6d bf 16 3e bb be 6d b1 a4 be 94 83 30 3e
       -0.9293751 -0.36570805 -0.32166615 0.17237693
0001b0 b2 cc 4a 3e 0d 2a 83 3e b5 00 29 3e 89 f5 d9 3e
       0.19804648 0.2561802 0.16504176 0.4257014
0001c0 9c 74 a9 3e ce 4f b9 3e 3e 26 b5 bd 15 15 6f bd
       0.33096778 0.361937 -0.08845185 -0.058369715
0001d0 e8 30 92 be df 64 7b bd 24 27 93 be 87 f3 84 3e
       -0.28552938 -0.061375495 -0.287408 0.25967047
0001e0 e0 3a 4b 3e c5 c1 3b bf 39 50 4a bf 3b 6f 51 3f
       0.19846678 -0.73342544 -0.7902866 0.8181035
0001f0 f4 3b 19 3f cb 41 c3 3e 1e c5 88 3b 78 9b 45 3f
       0.59857106 0.38136134 0.004173889 0.7719035
000200 9f 89 4a be 89 0d f7 bd 98 bc 9a 3e 3c 45 a0 3e
       -0.19779061 -0.120631285 0.3022201 0.31302822
000210 f7 8a 96 be 2d 06 17 bf 2e 0a 10 bf a8 ee 99 be
       -0.29402897 -0.589938 -0.5626553 -0.30064893
000220 89 f7 d1 bd 79 fe 97 3e 0d 89 8d be 70 ad 67 3e
       -0.10252292 0.29686335 -0.27643624 0.22624755
000230 c6 ca 60 bf ab 92 42 3e 01 5e 79 3e fa d9 99 ba
       -0.8780941 0.19001262 0.24352266 -0.0011737936
000240 b5 d9 7a bf ac c5 cb 3e c6 ee 1c 3f ca 78 61 bf
       -0.97988445 0.3979925 0.6130184 -0.88074934
000250 33 8f 55 3f 84 9e 87 3f 3c 97 92 3f 84 d3 5e bf
       0.8342163 1.059525 1.1452403 -0.870415
000260 b1 7a 94 be c3 d2 d3 3e 48 2a 54 bf 1f 87 e6 3d
       -0.28999856 0.41371736 -0.82877016 0.11256241
000270 3a 11 4f bf d8 e1 17 3f 65 df b9 3e bb e4 e5 bd
       -0.8088566 0.59328985 0.3630325 -0.112252675
000280 ba 8f 19 3f d0 12 1a be 49 60 3b 3f ec ad b9 3c
       0.59984934 -0.15046239 0.73193794 0.02266594
000290 a9 df 46 3f a8 2e 53 3f 83 37 d1 3d 65 8e bc 3f
       0.7768503 0.82493067 0.10215666 1.4730955
0002a0 dc 7c 50 3f 4e b2 52 bf 0c 52 28 3d 2b c9 62 bc
       0.8144052 -0.8230332 0.04109387 -0.0138419075
0002b0 ac 36 85 bc e0 31 05 3e 42 62 e1 3e 9a f0 b7 be
       -0.016261421 0.13007307 0.44020277 -0.35925752
0002c0 87 f5 4e 3f 94 95 20 3f 3a 1e 43 3f f1 6d d9 3e
       0.80843395 0.6272824 0.76218 0.4246669
0002d0 52 0a f5 3e 0f 0a b1 3f 1d 5f f4 3c 2c d6 05 3f
       0.47859436 1.3831195 0.02983051 0.52279925
0002e0 66 d3 57 3f 4c cf a4 bf 8e 17 00 3f 48 08 0a 3f
       0.84306943 -1.2875762 0.5003594 0.53918886
0002f0 b1 8b 06 3e 52 5b 08 be 85 cc 23 3e 9b f2 a1 3e
       0.13139226 -0.13316086 0.15995987 0.31630406
000300 1a f1 7e 3f d5 3a f8 3d 8a 8d 93 bd 9c 3c 62 3e
       0.9958664 0.12120596 -0.07204731 0.22093433
000310 0c 56 36 3e d6 47 a0 bd ab c6 70 bf 6d 0e f7 3e
       0.17806262 -0.078262016 -0.94053143 0.48253193
000320 d8 1c 8c be 85 6e 15 3f 4a 33 3e bf 71 b9 16 3f
       -0.27365756 0.58371764 -0.7429701 0.5887671
000330 84 dd 9d 3e 59 12 5b 3f cf 46 17 bd 0a ba 6a bf
       0.30833066 0.8557487 -0.036932763 -0.91690123
000340 8b f9 bf be af ca ea bd 83 c5 b2 3e 58 0d 75 3d
       -0.37495074 -0.1146444 0.34916314 0.05982718
000350 7a ed 2e 3c ae bf a1 3f 08 77 05 3f 69 80 ac 3f
       0.010676736 1.2636621 0.5213475 1.3476688
000360 ed d9 c8 bc b0 8a 1d 3e 5d 48 5b bf 1b f3 32 bb
       -0.024517978 0.15384936 -0.8565729 -0.0027305547
000370 0b ce 97 3d 1c a4 ef 3e 3a 74 05 3d 96 28 8c be
       0.074123465 0.46804893 0.032581545 -0.27374715
000380 2e 18 ad 3e 42 f7 03 3f b3 2e 65 3f e1 4b 2d 3e
       0.3380751 0.5154916 0.8952438 0.16923477
000390 2c 61 f0 3e 6e 7c 80 3e 7c d5 e3 3c 68 60 1f bf
       0.46949136 0.25094932 0.027811758 -0.6225648
0003a0 2b 02 d9 3e 5e 5f 78 bd 33 c0 84 3e 6c 0e 09 3f
       0.42384467 -0.060637824 0.25927886 0.5353763
0003b0 2a 3a 31 3f a2 de 24 bf 1a 4c ae 3f 7b 02 1f 3e
       0.69229376 -0.6440221 1.3616974 0.1552829
0003c0 11 2f 83 3e 5b cf 6c 3f 02 30 b5 3f 3e 7b 00 be
       0.25621846 0.925039 1.4155276 -0.12547013
0003d0 dd 9c a8 3e 95 96 f6 be 94 d6 57 3e e5 2f 61 3e
       0.32932177 -0.4816176 0.21077949 0.21990927
0003e0 61 90 2a 3d c4 b4 20 bf b1 92 9d be 85 20 2a 3e
       0.041641597 -0.62775826 -0.3077598 0.16613968
0003f0 cd 3d 8d 3d ab e8 a1 3d 4e 0d fa 3d 6b 02 25 bf
       0.06896553 0.07905706 0.12209569 -0.64456815

l1.bias f4 [8]
000000 b4 a3 5b 3f 90 70 59 3f 28 fd 89 3f 0c 8d 82 3f
       0.85796666 0.8493738 1.0780382 1.0199294
000010 89 31 8d 3f ec cc 98 3f f6 c6 74 3f a6 ec b6 3f
       1.1030742 1.1937537 0.9561609 1.4290969

l2.weight f4 [8, 8]
000000 a1 3f 71 3e d8 54 28 3f 89 9d a5 3f 02 5f 94 bf
       0.23559429 0.6575446 1.2938701 -1.1591494
000010 e7 49 a9 3e 45 f2 f9 3f 6d 5b e8 bd 14 14 2c bf
       0.33064196 1.952706 -0.11345563 -0.67218137
000020 c2 26 a7 3f 14 e5 e4 3f af b6 43 bf 88 4a 84 3f
       1.3058703 1.7882409 -0.7645063 1.0335245
000030 d8 d3 d5 bf af 19 0b be ce f3 e7 3f 44 62 ff 3f
       -1.6705275 -0.13584016 1.8121278 1.9951863
000040 6e a8 37 3f 93 28 a3 bf 28 89 a4 3f c0 80 b6 bf
       0.7174138 -1.2746757 1.2854357 -1.4258041
000050 c8 54 f6 3f 93 b0 3c 3f 5e cb a0 3f 3f d1 6a be
       1.9244623 0.7370693 1.2562063 -0.22931384
000060 df 65 fb bf e7 91 e9 3e f6 c5 99 3f 20 1e 4a 3f
       -1.9640464 0.45619127 1.2013538 0.7895222
000070 0e ab 95 3f 59 fa ab 3e 3f 9d 93 bf e3 72 f9 3f
       1.1692827 0.33589438 -1.1532363 1.9488186
000080 b9 6e c6 3f e2 37 d4 3f 10 2e da 3f 08 99 c6 3f
       1.550254 1.6579554 1.7045307 1.5515451
000090 ed be c7 3f d2 34 f3 bf 7f 7d 08 bf df 0f 61 bf
       1.5605141 -1.9000494 -0.5331649 -0.8791484
0000a0 52 fc 13 3f 33 ae 9b 3f 92 63 bb bf 50 5e 17 40
       0.57806885 1.2162536 -1.4639761 2.3651314
0000b0 e9 da eb 3f 55 af a4 3f aa 3f bb 3e 7d 1a f9 be
       1.8426181 1.2866007 0.3657201 -0.4865302
0000c0 a6 45 4f 3b 76 1c a4 3f e2 59 85 3e 6b 90 80 3f
       0.0031627207 1.2821186 0.26045138 1.0044073
0000d0 78 9f 85 bf e6 54 cc 3f ce 87 29 bf b3 55 ce 3f
       -1.0439291 1.5963409 -0.66222847 1.6119903
0000e0 05 b0 0a 3f 12 bd c6 bf 69 f4 8f bd be 0e 04 bd
       0.54174834 -1.552645 -0.070290394 -0.03224062
0000f0 6a 25 69 3f de c4 e2 3e e8 f2 ec 3f 3d ed ae 3f
       0.91072714 0.44290823 1.8511629 1.3666149

l2.bias f4 [8]
000000 6a 30 9b bb d8 3f 1a 3f db 31 1a 3f 82 8b 79 3f
       -0.004735996 0.6025367 0.60232323 0.974785
000010 7b 57 fb 3e 91 d1 9e 3e b9 58 02 3f a9 36 d8 3e
       0.4909018 0.3101926 0.5091663 0.42229202

l3.weight f4 [19, 8]
000000 1a 36 f0 be 0c 18 0a c0 50 c1 47 be 6a cd 0e 3f
       -0.46916276 -2.1577177 -0.19507337 0.55782187
000010 b4 11 28 3e 76 b4 17 bf ba e0 5f 3e 41 92 90 3e
       0.16413003 -0.59259737 0.2186307 0.28236583
000020 07 e4 20 3e 11 d1 86 3e 8c ed e4 be 80 dc c5 bf
       0.15711986 0.2633138 -0.44712484 -1.5457916
000030 b0 3f 0c bf 35 88 fe 3e 3a 22 3e 3e 66 f2 7a be
       -0.5478468 0.49713293 0.18567744 -0.2450653
000040 62 69 93 bf 5b 7a 4b 3f e5 2e 41 bf 06 62 74 3f
       -1.1516535 0.79483575 -0.7546218 0.9546207
000050 7b 28 bc bf 80 40 01 c0 56 32 95 3e b9 99 10 3f
       -1.4699854 -2.0195618 0.29139966 0.5648456
000060 8b 63 bd bf a2 b7 49 bc df ec 06 c0 33 13 35 3f
       -1.4796003 -0.012311848 -2.1082075 0.7073242
000070 d2 bd fd 3e 33 77 01 be 8d ce 2a 3d 6c 78 a6 bf
       0.49558884 -0.12643127 0.04170089 -1.30055
000080 e7 21 15 3f 7d 21 08 bf 8c 5f 2c 3f ab 86 ed bf
       0.58254856 -0.531761 0.6733329 -1.8556722
000090 32 fd 79 bf 21 da 09 bf f9 51 6a be 9c 6b 38 3f
       -0.9765197 -0.53848463 -0.22882833 0.720392
0000a0 2c 36 ef 3e dd e6 66 3e d7 3f 5d bf cf a1 6b 3e
       0.46721017 0.22549005 -0.86425537 0.23010944
0000b0 10 3c a2 3d 97 77 a0 bf 10 44 c8 3e 08 30 96 bf
       0.07921612 -1.2536496 0.39114428 -1.1733408
0000c0 d2 f0 29 bf aa 6d 75 bf 49 b4 1a bf 02 59 a3 be
       -0.6638309 -0.9587046 -0.60431343 -0.31903845
0000d0 71 df 4a 3f 57 e6 c7 3e 78 62 22 bf 11 7f 05 bf
       0.79247195 0.39042923 -0.634315 -0.5214701
0000e0 26 b0 da bf 6d d5 da bd f5 db ae 3d 33 18 fd bf
       -1.7085006 -0.10685239 0.08538047 -1.977301
0000f0 a6 0e 32 3e 3a b2 33 3f 0f 6a 85 bf 3a 41 92 3e
       0.173884 0.7019383 -1.0422992 0.2856539
000100 b5 9a 0e 3f 22 f5 a4 bf 56 b5 99 3e 39 1a ed 3e
       0.55704814 -1.2887309 0.3002116 0.4630907
000110 5f 99 9b bf d0 df 14 c0 5b 4a 35 3f a7 78 12 bd
       -1.215618 -2.3261604 0.7081658 -0.035759594
000120 d0 23 f7 bf 4c b4 43 3f bb 07 cb bf c6 c5 28 bf
       -1.9307804 0.76446986 -1.5861734 -0.6592678
000130 65 a3 f5 bf 7a a0 03 3f dd 6b 10 3f fe 03 17 3f
       -1.9190489 0.5141674 0.56414586 0.58990467
000140 32 f1 3d c0 92 aa aa bc e4 1d 61 be a2 d0 fe 3e
       -2.9678464 -0.020833287 -0.21984059 0.4976855
000150 da f2 4d be 3e 25 1a 3e 13 8d f6 bd 9c 61 c3 3e
       -0.20112172 0.1505327 -0.120386265 0.38160408
000160 0f 06 2f bf 53 f9 1b 3f 87 8f 28 3f cc 9b 60 bf
       -0.6836862 0.60927314 0.65844005 -0.8773773
000170 ff 3d d2 3d 73 17 b5 bf ed b8 27 bf bd d9 29 3e
       0.10265731 -1.4147781 -0.6551655 0.16586967
000180 5a 67 e2 3e 55 1a 89 bf 00 0b 22 3f 6d c0 cc 3d
       0.44219476 -1.0711161 0.63298035 0.0999764
000190 5a d0 3e be 90 56 04 c0 b1 a7 01 c0 c9 e3 fb 3e
       -0.18634167 -2.0677834 -2.02586 0.49197224
0001a0 76 e3 bf 3e 93 37 b8 bf 1d 3d d0 3e 58 84 33 3d
       0.37478226 -1.439196 0.40671626 0.043827385
0001b0 cb 96 0c 3f e3 92 17 c0 8c 82 e8 be 54 91 6f bf
       0.5491759 -2.3683403 -0.454121 -0.9358113
0001c0 59 51 0e c0 3a 34 6f 3f 45 b6 3c bf 6e a9 ff bf
       -2.223715 0.93439066 -0.7371562 -1.9973581
0001d0 c5 0c 0c 3d da 7f 0c be d4 c0 32 3d 88 ca a8 3e
       0.034191865 -0.13720647 0.043640926 0.3296702
0001e0 b0 03 45 3e 52 b3 e9 bf 2c 92 2a 3f 87 45 5d bf
       0.19239688 -1.8257849 0.6662929 -0.86434215
0001f0 4f 17 8f 3b f6 db 8a 3e e1 80 fa bf 4e 89 ea 3d
       0.0043667923 0.27120942 -1.9570581 0.1145197
000200 bb a2 f0 3d 7b db 42 3e be 80 d8 bf f5 96 1e 3f
       0.117497884 0.19029038 -1.6914289 0.6194909
000210 de 19 d1 bf bf a9 f5 3e ab 1d 0d 3f db b1 81 bf
       -1.6336019 0.47981068 0.55123395 -1.0132402
000220 29 07 0f bf 90 c9 c4 3e b3 90 11 c0 e4 14 b2 bf
       -0.558703 0.3843503 -2.2744567 -1.3912625
000230 e6 2e 18 3f d8 65 9c 3e 7a b9 62 3e 52 ee a6 bf
       0.5944656 0.3054645 0.22141066 -1.304148
000240 42 ed 89 be 54 d9 8f bf 84 4e 9f 3d c0 36 aa 3e
       -0.26938826 -1.1238198 0.077786475 0.33244896
000250 92 22 06 c0 ad 6d 6c 3f 45 3d 27 be 0e ca 26 3e
       -2.09586 0.9235485 -0.16331966 0.16288015

l3.bias f4 [19]
000000 db 5f 6c be cd e4 0b 3e 0a 11 01 3f 9f c6 0a 3e
       -0.23083441 0.136615 0.50416625 0.1355233
000010 86 fe 58 be da c0 66 3e 89 1c b6 bd 7b 47 11 bb
       -0.21190843 0.22534505 -0.088921614 -0.002216785
000020 55 68 ab 3c b6 6c 8b be 07 5a c1 3e ea d5 2d be
       0.020923773 -0.27231377 0.37763998 -0.16976133
000030 49 57 6b 3d 87 6d e2 3e 66 79 74 be 7d 9e 02 3e
       0.05745629 0.44224188 -0.23874435 0.12755771
000040 9f 7e 0c 3d 0a 2c 5c 3d 2d 8b 06 3f
       0.034300443 0.053752936 0.52556115
