data/Tasks.pth (torch, 3271 bytes, 6 tensors)

l1.weight f4 [8, 17]
-0.62250274 -0.3358538 -0.2988459 0.49538764 0.6243091 -0.39147544 0.67512757 -0.5687462
0.9334622 0.531484 0.5061341 -0.09609009 0.58241296 0.36502 0.46436626 -0.62252474
-0.2714426 0.13042721 0.5748897 0.4890284 -0.49028763 0.67278737 0.4994549 0.49983272
0.1496395 0.91557527 -0.41984582 -0.44687912 0.20316476 -0.4429758 0.5752349 -0.43571824
0.2500923 0.18280755 -0.45357233 0.5467052 0.7380511 -0.14365083 0.34230506 0.6148888
0.14063403 -0.4877369 0.15555485 -0.21224287 -0.19904731 0.13494597 -0.2306718 0.29580706
-0.27782997 -0.6258923 0.5673529 -0.2362831 0.61048734 0.55898464 -0.29559287 -0.08382847
0.5884263 0.44005573 -0.3603808 -0.07438018 -0.3361138 -0.2332245 0.25742117 -0.0483916
-0.036311008 -0.14648107 0.08826694 0.4853503 0.7743108 0.50308275 0.73051006 0.3443756
-0.71466124 0.4898333 -0.21337266 1.0861216 -0.57008034 0.34788153 0.26463252 0.826394
0.24390198 -0.19165349 0.2920748 0.92370427 0.5140189 -0.5640195 -0.14794098 -0.039619144
0.35699213 0.5970339 0.010390438 0.4846764 -0.56394476 0.8174335 0.23302878 0.23297252
0.0066045886 0.22522652 0.49436072 0.21416226 -0.56403387 -0.13879979 -0.061547138 -0.4745471
-0.4477715 0.7723346 0.23599024 -0.4808539 0.2492133 0.045077417 0.19833757 0.7342659
0.7248833 -0.06262829 0.7842348 0.0934325 0.7982743 0.27486524 -0.061367765 0.876608
-0.32313666 -0.6533846 0.13131115 -0.55946505 -0.59399456 -0.10151144 0.8728937 -0.4519181
0.09597533 0.16948943 0.3913595 0.23372811 -0.14424068 0.034082178 0.9496186 -0.22749753
00000000: 575c 1fbf 07f5 abbe 5402 99be 73a3 fd3e
00000010: b9d2 1f3f 786f c8be 29d5 2c3f 5a99 11bf
00000020: 61f7 6e3f 560f 083f 0192 013f e2ca c4bd
00000030: 0419 153f e7e3 ba3e 6ac1 ed3e c85d 1fbf
00000040: 86fa 8abe b68e 053e f92b 133f ee61 fa3e
00000050: fb06 fbbe cb3b 2c3f 8db8 ff3e 13ea ff3e
00000060: 193b 193e 2463 6a3f 08f6 d6be 57cd e4be
00000070: 6c0a 503e b9cd e2be 9842 133f 7616 dfbe
00000080: 190c 803e e731 3b3e a23a e8be dff4 0b3f
00000090: ebf0 3c3f 3419 13be 9c42 af3e 5a69 1d3f
000000a0: 5e02 103e a7b8 f9be c549 1f3e 3256 59be
000000b0: 0fd3 4bbe 472f 0a3e 3a35 6cbe 0674 973e
000000c0: bb3f 8ebe 7a3a 20bf 0a3e 113f 32f4 71be
000000d0: e648 1c3f 9e19 0f3f f357 97be 43ae abbd
000000e0: 1ba3 163f fc4e e13e d583 b8be a354 98bd
000000f0: 1c17 acbe 67d2 6ebe b5cc 833e 4536 46bd
00000100: daba 14bd 22ff 15be 4cc5 b43d d67f f83e
00000110: 3c39 463f 08ca 003f b502 3b3f 0052 b03e
00000120: 0af4 36bf 6ecb fa3e 5d7e 5abe 0806 8b3f
00000130: c9f0 11bf 871d b23e ea7d 873e 8f8e 533f
00000140: 71c1 793e d040 44be d48a 953e e277 6c3f
00000150: be96 033f 9563 10bf d77d 17be af47 22bd
00000160: acc7 b63e 37d7 183f a83c 2a3c 8127 f83e
00000170: af5e 10bf 5243 513f 199f 6e3e 5990 6e3e
00000180: 4e6b d83b c8a1 663e d91c fd3e 5a4d 5b3e
00000190: 8664 10bf 8821 0ebe da18 7cbd d6f7 f2be
000001a0: 4e42 e5be b8b7 453f 6da7 713e 7b32 f6be
000001b0: c531 7f3e 19a3 383d 0119 4b3e daf8 3b3f
000001c0: f491 393f 4343 80bd 9dc3 483f 8a59 bf3d
000001d0: b45b 4c3f 23bb 8c3e c45c 7bbd 6269 603f
000001e0: 2b72 a5be 3744 27bf 6e76 063e 1a39 0fbf
000001f0: 0710 18bf 3be5 cfbd f675 5f3f cf61 e7be
00000200: b78e c43d a38e 2d3e 4660 c83e 6c56 6f3e
00000210: d4b3 13be c199 0b3d 341a 733f 1df5 68be

l1.bias f4 [8]
0.6224662 0.4904476 0.63067555 0.7526708 0.7557994 0.5640723 0.48088604 0.5595139
00000000: f259 1f3f f31b fb3e f473 213f 09af 403f
00000010: 127c 413f 0b67 103f b236 f63e 4e3c 0f3f

l2.weight f4 [8, 8]
-0.73180556 0.32625243 0.44946125 0.663083 1.3829751 -0.5257685 -0.081335016 1.2917645
1.6023022 -0.12707767 1.2703934 0.7093299 0.09192354 1.1511203 0.16548015 -0.8812692
-0.17732367 0.094077885 0.038537174 -0.025422424 -0.30713335 -0.22420901 -0.14405055 0.054849654
0.9143595 -0.077141754 -0.6302794 -0.15483989 0.51551145 0.4436445 1.5383189 1.1813985
-0.4213097 0.2523792 0.51749045 0.77458405 1.1934435 -0.11537444 -1.1735697 -0.030527351
0.91726744 1.1005641 0.75924057 0.8043136 -0.39063126 1.015217 -0.5012202 -0.544766
0.49317795 1.2915983 0.75723773 0.28204045 -0.7811451 0.7274847 -0.48212764 -0.8247679
0.26793656 -0.23708078 -0.07548472 -0.29054448 -0.19361192 -0.31140515 0.06550738 -0.29494277
00000000: 9c57 3bbf 8f0a a73e c91f e63e cfbf 293f
00000010: 5405 b13f c498 06bf f992 a6bd 8a58 a53f
00000020: 3d18 cd3f a620 02be 409c a23f a596 353f
00000030: 6942 bc3d e957 933f a173 293e dc9a 61bf
00000040: 5694 35be e8ab c03d 28d9 1d3d b042 d0bc
00000050: 9540 9dbe 0c97 65be fd81 13be 08aa 603d
00000060: 7713 6a3f 7ffc 9dbd fe59 21bf 598e 1ebe
00000070: 8ff8 033f 5f25 e33e a2e7 c43f 1138 973f
00000080: e8b5 d7be d937 813e 417a 043f 244b 463f
00000090: c2c2 983f 6f49 ecbd 8837 96bf 7f14 fabc
000000a0: 0ad2 6a3f 49df 8c3f 975d 423f 7fe7 4d3f
000000b0: d200 c8be a1f2 813f f84f 00bf c975 0bbf
000000c0: d281 fc3e 1853 a53f 55da 413f 9b67 903e
000000d0: 20f9 47bf 703c 3a3f 6fd9 f6be fd23 53bf
000000e0: fb2e 893e 4ec5 72be bc97 9abd 3fc2 94be
000000f0: 3442 46be 7f70 9fbe bc28 863d bd02 97be

l2.bias f4 [8]
0.26397982 0.54284066 -0.20770203 0.44254464 0.15001749 0.35690162 0.3136558 -0.08092514
00000000: 5d28 873e 9bf7 0a3f d7af 54be 3695 e23e
00000010: 2f9e 193e cfbb b63e 7e97 a03e 14bc a5bd

l3.weight f4 [4, 8]
0.21638381 -0.10713082 0.0757612 -1.4595969 0.72343576 0.19405669 0.07277554 -0.20019154
-1.4829657 0.09264484 -0.28443396 -0.639318 -0.9660247 0.54157746 0.655234 -0.13086967
-0.20259951 0.3406966 -0.10890484 0.48993295 -1.2178242 -0.33113575 -1.2986358 -0.043406546
0.80711764 -1.573733 -0.15628135 0.275818 0.11972678 -0.95206153 -0.41425377 0.25115082
00000000: b893 5d3e 6767 dbbd b028 9b3d 12d4 babf
00000010: 1633 393f ccb6 463e 580b 953d 03ff 4cbe
00000020: d2d1 bdbf 94bc bd3d 54a1 91be 58aa 23bf
00000030: 654d 77bf d2a4 0a3f 6abd 273f b302 06be
00000040: 3f76 4fbe c96f ae3e 8009 dfbd 7ed8 fa3e
00000050: aae1 9bbf a08a a9be b339 a6bf 10cb 31bd
00000060: 439f 4e3f 1570 c9bf 3808 20be 0438 8d3e
00000070: 5033 f53d 4eba 73bf 1219 d4be d796 803e

l3.bias f4 [4]
-0.32706714 -0.3128025 0.08902001 0.056382485
00000000: 5875 a7be a627 a0be 1f50 b63d 52f1 663d
