data/Tasks.pth (torch, 4615 bytes, 6 tensors)

l1.weight f4 [8, 44]
000000 28 13 73 3e e4 a6 e5 3d 00 d5 61 bb 71 fc f9 be
       0.23737776 0.112134725 -0.0034459233 -0.4882541
000010 aa 89 ed bd 8e 11 86 3e ea 19 01 be fb 17 c4 bd
       -0.11598523 0.26185268 -0.12607542 -0.095748864
000020 65 bb 16 bf 73 08 40 3f f5 2e 1c bf eb 42 bb 3e
       -0.5887969 0.7501289 -0.6100915 0.36574492
000030 ca 70 ae bd 4c ff b7 3e 5c 76 3e bd 80 ed 20 3f
       -0.085176066 0.35936964 -0.046499595 0.62862396
000040 a7 38 84 3e 32 0a 04 bf 01 0a 00 3f c7 2e 0d bf
       0.25824472 -0.51578057 0.50015265 -0.551495
000050 4c d9 d4 3e 60 97 84 3e 7d 1f 57 3f 61 21 2f 3f
       0.41572034 0.2589674 0.8403242 0.6841031
000060 3d 02 de bd 10 49 ae 3e a7 5f a8 3e 84 e4 1c 3f
       -0.10840271 0.34040117 0.32885477 0.6128619
000070 17 90 53 be 7a 0a 21 3f 7b 3c c8 bd 4b 53 c6 3e
       -0.20660435 0.6290661 -0.09777161 0.38735422
000080 d6 76 a2 3e 93 46 bd 3e 9f 68 ea 3e 8a f7 4f 3f
       0.3173129 0.36967906 0.45782945 0.8123709
000090 ae d1 50 bf c9 cf c8 3e b7 20 15 3f a3 5d 5c 3f
       -0.81569946 0.39221027 0.58253044 0.8608038
0000a0 6b 6c d6 3e 03 62 f1 be 6c c8 e4 bd ce d2 92 be
       0.4187959 -0.4714509 -0.1117104 -0.28676456
0000b0 e1 3e b6 3e dc c0 a3 3d 36 2b bb 3e 3e 54 2e 3f
       0.35594848 0.079957694 0.36556405 0.68097293
0000c0 4b d9 8f 3e e2 e5 60 3e bf 02 75 3e 46 ea e5 3d
       0.2809547 0.21962693 0.23926829 0.11226325
0000d0 55 97 62 3f 1d 42 ea 3d 3d b5 0e 3f d6 2c 99 3e
       0.88512164 0.11438391 0.557453 0.2991702
0000e0 6a aa a9 3d f0 4e 0b 3f 8d 06 f8 3d 71 05 be be
       0.08284457 0.54417324 0.121106245 -0.37113526
0000f0 3f bd 0e bf c0 32 24 3f e4 b9 74 be e5 a0 11 3f
       -0.55757517 0.6413994 -0.23899037 0.5688613
000100 c5 ae f2 3d 11 20 22 bf f8 09 c1 3b f9 7a a4 be
       0.11849741 -0.6333018 0.005891081 -0.3212507
000110 65 21 ca 3e ba 06 38 3e fe fe a0 3d 92 2e da be
       0.39478603 0.17971316 0.07861136 -0.42613655
000120 df 1e 3f 3f ee 40 d4 be 2b 67 7e 3e 39 77 f7 3d
       0.7465648 -0.41455787 0.24844043 0.12083287
000130 3e ec db 3d 57 57 82 be 51 f2 ae 3e 8e 81 36 bd
       0.10738419 -0.2545726 0.34169248 -0.044557147
000140 6e df 1a 3f 31 c6 85 3e 8f a5 de be 80 c3 38 3f
       0.60497177 0.2612777 -0.43485686 0.7217331
000150 1b 69 f8 3d 3e 2f 41 3f 7b e8 b5 3e 36 01 d4 3e
       0.12129422 0.7546271 0.3552893 0.41407174
000160 d5 43 87 3e 98 08 8e 3e d9 37 dc 3e 04 5d b7 3e
       0.2641894 0.27740932 0.43011358 0.35813153
000170 48 f5 bd 3e 9a e4 ae 3e 3a 72 b3 3e 3c 14 e7 3e
       0.37101197 0.34158784 0.35048085 0.45132625
000180 87 ee 0e bf 55 4d ee be 7c 0d 14 bf 30 c5 03 bf
       -0.55832714 -0.46543375 -0.57833076 -0.5147276
000190 c8 a3 00 3f ce 8f ec 3e 3a 24 f1 3e d7 61 0e bf
       0.5024991 0.46203464 0.4709795 -0.5561804
0001a0 0c f7 60 3f 97 1d 18 bf 45 86 13 3f 64 f8 c9 3e
       0.87876964 -0.5942015 0.57626754 0.3944732
0001b0 3a b1 c4 be 13 a1 85 3f 01 fe e0 be c6 61 0e bf
       -0.38416463 1.0439781 -0.4394379 -0.5561794
0001c0 1d ee d7 3e ff f9 c3 3e e3 1f 03 bf 31 93 f1 be
       0.42173854 0.3827667 -0.5122053 -0.4718261
0001d0 c8 8f 3b 3e 7d 4d 0e bf 52 ec dc 3e 8f 47 c1 be
       0.18316567 -0.5558699 0.43149048 -0.37749907
0001e0 34 43 da 3e f8 5d 16 3f af 05 bc be f4 eb de be
       0.42629397 0.58737135 -0.36723086 -0.43539393
0001f0 14 0c 80 3f d5 98 d7 be 0d e8 fb be ac 19 be bd
       1.0003686 -0.4210879 -0.49200478 -0.0928224
000200 ca a8 e1 be a8 89 cc 3e 8f 12 88 3e 4d cb 83 be
       -0.44074088 0.39948773 0.2657666 -0.25741044
000210 4b 6b 93 3d 36 c1 9a bd 81 c5 a9 3e 0b 70 48 3f
       0.07198199 -0.07556383 0.33158496 0.78295964
000220 d1 13 7d 3e 7c 61 a3 3e 1c 11 84 3e 3e b5 8a 3e
       0.2471459 0.31910312 0.25794303 0.27091402
000230 81 63 0d bf f4 6c 32 3f e4 2d 0c bf 3b ef 13 bf
       -0.55229956 0.696975 -0.54757524 -0.5778691
000240 16 07 c2 3e 5d dc ac 3e 70 c9 35 3e fd 43 bd 3e
       0.3789603 0.33761874 0.17752624 0.36965933
000250 20 51 2a bf d8 bb 2c bf e9 4e 27 be 15 1d 5f 3f
       -0.66530037 -0.67474127 -0.16338696 0.8715375
000260 1f 25 0b bf de ca 12 bf f7 f2 36 3f a7 2c a7 3e
       -0.5435352 -0.573408 0.71464485 0.32651255
000270 df 87 b1 3e 71 70 47 3e 0a 77 24 bf c3 c5 c9 3e
       0.34673974 0.19476487 -0.6424414 0.39408693
000280 77 5a c5 3d 96 c5 d7 3e 03 fd 29 3e b4 6e 35 bf
       0.096363954 0.42142934 0.16600423 -0.70872045
000290 64 c4 d8 3e e1 88 1c be 86 86 2e bf a7 fe 59 3f
       0.42337334 -0.1528659 -0.68174016 0.85154194
0002a0 e8 f7 42 3f e0 5c 41 bf b2 5d cd 3e 35 72 23 3e
       0.76159525 -0.7553234 0.40110546 0.15961535
0002b0 9e 5f 0c bf 7c 0e 50 3f a9 9d d6 3e 61 a4 33 be
       -0.548334 0.812721 0.4191716 -0.17543174
0002c0 3f 2f 00 3f 9f 14 a2 3e c1 8d 31 3e e3 2d d9 be
       0.5007209 0.31656358 0.17339231 -0.4241782
0002d0 cc 83 04 3f ce 91 15 3f 4c 38 04 3f ab d1 0e 3f
       0.51763606 0.58425605 0.516484 0.5578868
0002e0 f8 1b 72 bd 2b 41 e9 be 6b ca cc bd f5 63 31 3f
       -0.059108704 -0.45557532 -0.09999546 0.6929315
0002f0 b7 a7 f8 3e 04 84 05 3f 18 6c 82 3e 99 58 bc be
       0.48565456 0.52154565 0.25473094 -0.36786345
000300 4b 35 88 3f 31 ad 7c be bf f7 18 3f ec 1f d9 be
       1.0641264 -0.24675442 0.5975303 -0.42407167
000310 64 fc 0c 3f 6c fb 79 3f 4a cd f5 be 5f 32 d8 be
       0.5507262 0.97649264 -0.48008186 -0.4222593
000320 12 73 31 3f e2 7d e3 3e ab af 07 3f 0a 1e d9 be
       0.6931621 0.44431978 0.53002423 -0.4240573
000330 24 fb da 39 80 32 d4 be cc 1d 0d 3f 06 ab 0e 3f
       0.00041767315 -0.41444778 0.5512359 0.5572971
000340 6f 7a ef 3e c3 65 0d 3f 72 6e dc 3e 29 1a fa be
       0.46773097 0.552334 0.43053013 -0.48848084
000350 a5 e6 15 3f 9b 04 e8 3e ed f8 c0 be f6 cc a8 3e
       0.5855506 0.45316014 -0.37689915 0.32968873
000360 ba a0 08 3f 2e 20 d9 be a0 a5 9e 3e cc e7 2e be
       0.5337025 -0.42407364 0.30985737 -0.17080611
000370 81 03 59 3d d0 c4 48 3e 4c 7a 1a 3d 42 3c de be
       0.052981857 0.19606328 0.037714288 -0.43405348
000380 13 03 19 be 86 6e 37 be 73 fa 38 be b8 5b 38 be
       -0.14942579 -0.17913255 -0.18064289 -0.18003738
000390 8d 93 2d 3f 00 0f 02 bf 41 45 41 3f 95 4b 1f 3f
       0.6780327 -0.5080414 0.754963 0.62224704
0003a0 c4 3e 38 be 18 7d 39 be 20 7a c1 bb ee ba 01 3f
       -0.17992693 -0.18114126 -0.005904451 0.5067586
0003b0 7f d0 fd 3d 54 c3 34 3f 09 40 ce 3e 67 9f a3 be
       0.12393283 0.7061055 0.4028323 -0.31957552
0003c0 ab 63 16 3f e1 94 9e 3e 7c 22 f8 be 42 6b fa 3e
       0.5874583 0.3097296 -0.4846381 0.48909956
0003d0 57 49 38 be 71 bd 3f be 7c 14 d4 3e 4c a2 17 3f
       -0.17996727 -0.1872461 0.41421878 0.5923202
0003e0 a4 af 3f 3e 62 29 08 3f 89 5b 3f be 67 5a 03 3f
       0.18719345 0.53188145 -0.18687262 0.5130982
0003f0 fd 56 39 be 78 d3 d1 3e 91 9d 08 3f 98 76 c1 be
       -0.1809959 0.4098165 0.5336543 -0.37785792

l1.bias f4 [8]
000000 df 23 1c 3f a5 e4 67 3f e9 ea 0e 3f 5d bc 2c 3f
       0.60992235 0.9058326 0.55827194 0.6747492
000010 31 21 d9 3e 98 cd 45 3f 35 b6 84 3f 8e b9 fd 3e
       0.42408136 0.77266836 1.0368105 0.4955563

l2.weight f4 [8, 8]
000000 5b 8a 43 bf 73 df 09 3f 59 fe f6 3c 11 70 b8 be
       -0.7638299 0.5385658 0.03015058 -0.36023
000010 aa b7 95 be ca 0a 9e 3f 16 ff cd 3f 6e a8 e9 3e
       -0.29241687 1.2347043 1.6093471 0.45636314
000020 42 58 b1 3f 09 81 db 3e ee c9 b0 bf 91 e3 8f 3e
       1.3855059 0.42871884 -1.3811624 0.28103307
000030 49 e8 68 3e 72 2a 4d 3f 69 7f 0c bf a3 e4 0b 3f
       0.2274486 0.8014289 -0.5488191 0.54645747
000040 13 16 ae 3f d6 a8 be be ce 0f 12 3f 35 68 23 bf
       1.3600487 -0.37238187 0.57055366 -0.6383088
000050 fb 16 9d 3f e4 4c 39 3f ae 12 5c 3e 66 2a d9 3c
       1.2272638 0.7238295 0.214915 0.026509475
000060 55 be 24 3d 9d d3 be 3f ea fc 9c 3f 47 a2 92 3f
       0.040220577 1.4908329 1.2264683 1.1455773
000070 94 3b dd 3e 53 66 a6 bf f3 85 07 bf d9 23 8a 3f
       0.43209517 -1.2999977 -0.52938765 1.079219
000080 41 2e ba 3b 79 65 eb 3d 24 b8 21 be 07 85 2c be
       0.0056817834 0.11493964 -0.157929 -0.16847621
000090 50 6f 2a 3d dd be 45 3e d2 ad c2 bd 8b 9f 1e be
       0.041610062 0.1931109 -0.0950581 -0.15490548
0000a0 7d d1 33 3f c0 76 fd 3e df 5a 2e bf de a4 ca 3f
       0.7024153 0.49504662 -0.6810741 1.5831563
0000b0 ba 57 c1 bf da 99 0c 3f 24 a9 80 3f cf ef 6f bf
       -1.5104897 0.5492226 1.0051618 -0.93725294
0000c0 20 48 04 bf 66 30 2d 3d c3 0f 97 3f 03 ba 47 3e
       -0.51672554 0.042282484 1.1801685 0.19504552
0000d0 ab a5 95 3f ca 62 19 3f e8 a0 0e 3d 3e 9e c1 3e
       1.1691183 0.59916365 0.03482142 0.37816042
0000e0 93 0e ee be d0 f6 75 3f e7 94 80 bf d1 5c 91 bf
       -0.46495494 0.9607973 -1.0045441 -1.135645
0000f0 27 ff d0 3e ca 04 9f 3f a1 25 cd be be ec b7 3f
       0.40819666 1.2423337 -0.4006777 1.4369123

l2.bias f4 [8]
000000 ec 25 b6 3e bd a9 ef 3e 2b 04 30 3e 17 dc f0 3e
       0.35575807 0.46809188 0.1718909 0.47042915
000010 c9 80 83 be 56 d8 f4 3e 55 3b 59 3e ab 3a 97 3e
       -0.25684193 0.478213 0.2121404 0.29536948

l3.weight f4 [7, 8]
000000 86 55 f4 bf 23 3c 06 3f ac 35 f7 3c 0d 05 b5 3e
       -1.90886 0.5243551 0.03017696 0.35355416
000010 06 5a 8f 3e 7a a8 a8 3e 85 fa 68 bf 1e ac 95 bf
       0.2799837 0.32941037 -0.9100726 -1.1693151
000020 33 14 63 3f 07 de 23 bf 94 5a 3b bf ee 24 61 bf
       0.88702697 -0.6401066 -0.73185086 -0.87946975
000030 01 6d 0e 3e 7e 28 2b bf ba ff b2 be 3d a3 8a 3f
       0.13908769 -0.6685866 -0.3496073 1.0831066
000040 41 53 a9 bf b3 d3 3c 3f 80 28 04 3f 07 d6 95 be
       -1.3228532 0.7376053 0.516243 -0.29264852
000050 5d 0f 4a be 7b 67 c1 bf b8 8b 52 be d6 de 5b 3f
       -0.19732423 -1.5109705 -0.20561111 0.85886896
000060 07 e1 c6 3e 2c 29 a0 bf 4a 66 80 3f db 93 18 bf
       0.38843557 -1.2512565 1.0031216 -0.5960061
000070 0b 11 80 3e df a1 9c bf 16 4e d3 3e d0 61 5f bf
       0.25013003 -1.2236899 0.41270512 -0.87258625
000080 1c 5c 35 3e 25 3d 16 3e d7 b9 05 be 3d 4e f1 bf
       0.17710918 0.14671762 -0.13059174 -1.8852001
000090 68 ed c9 bd 33 95 81 3f d0 d4 bc be 1c ed 98 bf
       -0.09859735 1.0123657 -0.36881113 -1.194736
0000a0 33 eb ac bf ca 47 70 bf 97 e4 f2 be a4 b3 89 3f
       -1.3509277 -0.9385954 -0.47440025 1.0757947
0000b0 ea 47 3e 3e 52 99 7d bf 8d 4c 01 3f 11 c9 f4 be
       0.1858212 -0.99062073 0.5050743 -0.47809651
0000c0 f1 ac 2d 3f 1c 5f fe bf 8d 88 e8 bf 8e 23 a3 3e
       0.6784201 -1.9872775 -1.8166672 0.31863064
0000d0 4f f8 4c 3e d5 3a 12 3f 61 5f 81 be 76 99 80 bf
       0.20016597 0.5712102 -0.2526808 -1.0046833

l3.bias f4 [7]
000000 e0 ee 97 bd ec 23 07 3d 99 60 cc be 81 45 f0 bc
       -0.07418609 0.032993242 -0.39917448 -0.029330017
000010 32 ef b4 3e a6 96 ab 3d 0f f8 d0 3c
       0.35338742 0.08378343 0.025508909
