data/Tasks.pth (torch, 5447 bytes, 6 tensors)

l1.weight f4 [8, 60]
000000 e3 9c 6c 3f cb 5a 33 3e 2f 23 9f 3e ab d8 99 3e
       0.9242689 0.17515104 0.3108153 0.30048117
000010 8b b6 64 3e 54 55 3e bf 93 db 51 3e 1a 3e a8 3e
       0.2233526 -0.7434895 0.20493917 0.3285988
000020 87 46 8c 3e 4f 03 e8 3e 7b cf cf 3e b1 93 38 3f
       0.27397558 0.45315024 0.40587983 0.7210036
000030 ee 00 13 3e 90 f8 32 bf 22 0d 44 3f d9 37 36 3f
       0.14355823 -0.69910526 0.7658254 0.71178967
000040 10 10 04 bf 99 0f 04 bf 57 17 04 bf 76 46 ce 3e
       -0.5158701 -0.515863 -0.51598114 0.40288132
000050 a3 28 0f 3f a9 a3 25 3f 69 7f c7 3e 9c a8 03 3d
       0.5592138 0.6470285 0.38964394 0.03214322
000060 64 82 85 bf cc c6 41 3f b8 04 b0 be ed e4 f9 3e
       -1.0430417 0.75693965 -0.343786 0.4880747
000070 53 27 a3 3e 7b e0 08 3f 92 25 81 bf d1 27 51 3e
       0.3186594 0.5346753 -1.008959 0.20425345
000080 a6 27 9d bc 56 c6 a6 be 4a ed fe 3e 04 b3 89 3e
       -0.019183945 -0.32573193 0.49790412 0.2689439
000090 aa 32 1a bf 5c 60 10 3f fc 93 0f bc 01 61 09 3f
       -0.6023356 0.5639703 -0.00876331 0.5366364
0000a0 81 a8 28 3e 36 e7 cd 3e 3a da 01 3f 96 67 a9 3e
       0.16470529 0.40215462 0.5072361 0.33086842
0000b0 d9 fe ac be b9 d9 65 be b8 c1 15 3f 6d bc 06 3f
       -0.33788183 -0.22446336 0.58498716 0.52631265
0000c0 89 3f 86 3d 82 6d 3b 3f 68 1f f7 3e 48 64 0e 3c
       0.06555087 0.7321397 0.4826615 0.008690901
0000d0 89 ba 94 3f 98 ee 19 3f 11 e9 3e bf 16 39 77 3e
       1.1619426 0.6012969 -0.7457438 0.2414287
0000e0 12 9c 30 3f 96 14 84 3e 71 37 c3 3e 30 43 54 bb
       0.68988144 0.25796956 0.38128236 -0.003238868
0000f0 99 66 30 be 12 72 ae 3e d4 26 5c 3e db 39 85 3e
       -0.17226638 0.34071404 0.21499187 0.26020703
000100 7c 7c 32 3e 9a a4 9d be 28 3c 25 bf c4 2b de 3d
       0.174303 -0.30789644 -0.64544916 0.108481914
000110 8b cd 57 3e aa 3f f8 3d d7 86 45 3e dd 43 09 bf
       0.21074502 0.12121518 0.19289719 -0.53619176
000120 ff 93 3e be 5d 64 42 be 14 c1 cf be 06 57 f1 be
       -0.18611144 -0.18983598 -0.40576994 -0.47136706
000130 b2 c8 a6 3e 77 80 b9 3e 66 36 8a 3e 6f 8c 40 3e
       0.32574993 0.36230823 0.26994628 0.18803571
000140 5d c3 ac 3e a4 6b dc be 33 26 ac 3e 7e 1d a3 3e
       0.337428 -0.43050873 0.33622894 0.31858438
000150 98 ba 7b 3f 53 1b 01 bf 76 68 30 3f 18 a8 14 bd
       0.98331594 -0.5043232 0.68909395 -0.03629312
000160 5b 7a 00 bf 80 01 f1 be d7 2f 80 3f 03 b3 47 be
       -0.501867 -0.47071457 1.00146 -0.19501881
000170 a0 3a 8e 3e fc 40 74 3c 7d 68 42 3e 8d 0e 80 3e
       0.27779102 0.014908072 0.18985172 0.250111
000180 3e 79 f2 3e 87 8f c5 be 8b 6d 8e 3e c0 c6 2c bd
       0.47358125 -0.38586065 0.2781795 -0.04218173
000190 33 7b 81 3e fe e4 47 3e 30 94 ef be 43 3d 25 3e
       0.25289306 0.19520947 -0.46792746 0.1613665
0001a0 ca 02 1e 3f e6 f3 06 bd f6 9f 0e 3d 0b 81 f0 be
       0.61723006 -0.032947443 0.03482052 -0.46973452
0001b0 a7 32 6f be 37 13 57 3f d6 f7 ef be 5e 18 93 3e
       -0.23359166 0.84013695 -0.4686877 0.28729528
0001c0 38 1a 81 bb 29 8c e4 be 1d 1f a4 be 06 64 1b bf
       -0.003939893 -0.44638184 -0.32054988 -0.606995
0001d0 64 08 d3 be ce 80 86 3e aa a8 d8 be 8e 9c 2f 3e
       -0.4121734 0.26270145 -0.4231618 0.17149565
0001e0 ad a5 8c be f1 bf e7 bc 21 d3 0e bd 8c 2a 13 3f
       -0.2747015 -0.028289767 -0.034869317 0.57486796
0001f0 94 92 cf 3e 9a d1 f7 bd 71 9d 05 bf fc ec e0 3e
       0.40541518 -0.12100525 -0.5219336 0.43930805
000200 5b 45 c4 3e 47 7e 9b 3e 70 7e 95 3e 2e 37 ec be
       0.38334164 0.3036978 0.29198027 -0.4613585
000210 5b 33 63 3f c3 db fc bd 7f 7d de be 52 1f c2 be
       0.8875024 -0.12346604 -0.4345512 -0.3791452
000220 d6 c2 92 3e 43 a0 8d 3e 3c ca 96 3e c4 be 84 3e
       0.28664273 0.27661332 0.29451168 0.25926793
000230 a6 d2 b5 3e 02 53 25 3f ee e9 d4 3e 2e f1 b3 bd
       0.35512275 0.64579785 0.41584724 -0.08786236
000240 ca ac 05 bf b8 06 cc be 94 0c 65 bd 93 fb de be
       -0.5221678 -0.39848876 -0.0559202 -0.4355131
000250 27 a0 05 bf f0 d4 ba be 1a 9e 05 bf 3d 8a 66 3f
       -0.521975 -0.36490583 -0.5219437 0.90054685
000260 d0 d5 f1 bd 4a 66 1b be 4e 5d fb 3e 63 c0 98 3e
       -0.118083596 -0.15175739 0.49094623 0.2983428
000270 b5 f9 43 3f cb f2 dd be 20 33 4f be 57 85 f8 bd
       0.765529 -0.433493 -0.20234346 -0.121348076
000280 a0 bb 4a be 63 1b b5 3e 4b 99 01 bf d4 e1 ae 3e
       -0.19798136 0.35372457 -0.5062453 0.34156668
000290 97 ce bc bd 92 ce 01 3d f6 cb b3 be 9b 66 ba be
       -0.092190914 0.03169114 -0.35116547 -0.36406407
0002a0 e7 90 6a 3f 19 1e 8a 3f e9 95 07 bf 46 20 68 bd
       0.91627353 1.0790435 -0.5296312 -0.056671403
0002b0 59 de 69 3f 35 4f cb be 3e 50 4f bc d4 a5 05 bf
       0.913549 -0.39708868 -0.012653409 -0.5220616
0002c0 e0 55 46 3f 9e 5f e7 3e 78 f3 c8 bd ca e8 54 3e
       0.77474785 0.45190138 -0.09812063 0.20791927
0002d0 d4 83 78 3c f7 c1 73 3e 41 5a 00 be f4 e4 21 3e
       0.015168149 0.2380446 -0.12534429 0.15809995
0002e0 35 bc f1 bd a9 24 56 3f 90 f3 55 3f dc 03 9d be
       -0.11803476 0.8364969 0.8357477 -0.30667007
0002f0 a7 a4 95 be ef 03 9a be 02 14 9d be 5a ad b8 be
       -0.29227182 -0.30081126 -0.30679327 -0.36069757
000300 57 ff 90 be 89 52 22 3f 9e 15 08 bf fb eb a4 be
       -0.2831981 0.6340719 -0.53157985 -0.3221129
000310 2d 4c 4a 3f 96 b1 3a 3f 9a a7 66 3f de fa 9c be
       0.79022485 0.72927225 0.9009949 -0.30660146
000320 7b fc 9c be cb 76 15 bd 44 e4 cc bc 5d 37 da 3e
       -0.30661377 -0.036490243 -0.02501119 0.42620364
000330 67 64 87 3e 7a b3 d1 be d4 8c 08 3f 1c f1 b6 bb
       0.26443788 -0.40957242 0.53339887 -0.0055829417
000340 8d 20 65 3f e8 87 9d be e1 aa a7 3e 2d f6 90 be
       0.89502794 -0.3076775 0.32747558 -0.28312817
000350 cf aa be 3e 02 04 b4 3e 9a f4 9c be 13 47 97 be
       0.37239692 0.35159308 -0.30655366 -0.29546413
000360 7b 61 a9 3f 09 08 2a be ef 4f 9d 3e ed 05 f4 3e
       1.3232874 -0.16604628 0.30725047 0.4766077
000370 19 3e d9 3e 5b 20 9d be bc d0 a4 be 90 f2 9c be
       0.4243019 -0.30688748 -0.32190502 -0.3065381
000380 0c f5 a4 3e b8 af b9 3e dc 50 30 3d 69 36 5b be
       0.32218206 0.36266875 0.043045864 -0.21407475
000390 f6 f6 90 be 98 af 61 bf f2 d9 92 be 59 f6 ec 3e
       -0.28313416 -0.8815856 -0.28681904 0.46281698
0003a0 3e b1 67 bf 5d ab 79 be e1 92 26 3f a0 2a 48 3f
       -0.90504825 -0.24381776 0.6506787 0.7819004
0003b0 fd 21 0e 3e 7c ca dc bc bf 07 ca be 1c c8 26 3f
       0.13880153 -0.02695202 -0.39459035 0.6514909
0003c0 8e 55 8b be 7c 10 16 3f 2d 93 db bd fe 55 82 be
       -0.2721371 0.58618903 -0.10721431 -0.25456232
0003d0 84 d7 62 3e 5e 50 cc bd 8b 58 8c 3e cc 9d 6f bd
       0.22152525 -0.09976266 0.27411303 -0.058500096
0003e0 07 4e 3a 3c f2 1d e8 3a 8a c8 a0 bd e5 6a 4c 3f
       0.011371142 0.001770912 -0.0785075 0.7985061
0003f0 57 60 af be a1 b3 52 be 86 b5 64 3f 36 c0 4c bd
       -0.3425319 -0.20576335 0.8933948 -0.049987994

l1.bias f4 [8]
000000 17 26 8f 3f 0e c9 25 3f bf a1 05 3f 7b 16 98 3f
       1.1183499 0.6475991 0.5219993 1.188186
000010 e6 1e 88 3f 29 0e 48 3f b4 60 83 3f 00 c9 97 3f
       1.063443 0.78146607 1.0263886 1.1858215

l2.weight f4 [8, 8]
000000 02 b4 a0 3f 1d 22 bb bf bd ef 94 bf 79 66 db 3e
       1.2554934 -1.4619786 -1.1635662 0.42851618
000010 0f 83 9a 3f d5 28 b4 bf 47 e7 b0 3d 3a 79 96 3f
       1.2071246 -1.4074961 0.08637863 1.1755745
000020 f4 3e af 3f 39 2d 40 3f 26 e4 ae 3f e3 5d 60 bf
       1.3691087 0.75069004 1.3663375 -0.8764326
000030 c3 51 b5 bf d9 b2 8e 3f 11 0f 13 3f 38 b4 58 3f
       -1.4165577 1.114833 0.57444865 0.8464999
000040 59 e5 b6 3e 9b 06 6d 3d 86 50 1b bf cd 19 9a bd
       0.35721853 0.057867628 -0.60669744 -0.07524452
000050 45 df 03 bf b0 a3 11 3f 04 4e db 3d bb d1 32 3e
       -0.5151256 0.5689039 0.1070824 0.17462818
000060 33 a9 85 be 0e b3 83 3f 99 00 8b 3f 26 26 00 40
       -0.2610565 1.0289018 1.0859557 2.0023284
000070 6a e5 a7 be d3 10 9d 3f 50 51 00 40 38 05 bd bf
       -0.32792217 1.2270759 2.004963 -1.4767218
000080 e8 be 2b be 8d a1 a4 be 14 29 b2 3d 9d 2f b3 be
       -0.16772044 -0.32154503 0.08699241 -0.34997264
000090 54 8a 80 be 96 2f 47 3e e0 57 62 3c 98 6b 0a bd
       -0.25105536 0.19451746 0.013814896 -0.033794016
0000a0 4f cf a8 3f 9f c5 3c 3f ca 2f b7 3f ff 1b cc bf
       1.3188266 0.73739046 1.4311459 -1.5946044
0000b0 6d 17 89 3f 82 63 a3 3d db a5 42 bf 14 72 72 3e
       1.0710274 0.07977964 -0.76034325 0.2367633
0000c0 d1 d8 81 3f 8c bf 8e bf dc e7 14 3f f5 b2 b2 be
       1.0144292 -1.1152205 0.5816629 -0.34902158
0000d0 05 54 8f bf ad 01 2a bf 0a 4e c7 3f 2e ed 6b 3e
       -1.1197516 -0.6640881 1.5570691 0.23039696
0000e0 88 70 53 3d 79 20 c8 3f bd 5b d6 be 00 83 a3 3d
       0.05162099 1.563491 -0.41866866 0.07983971
0000f0 17 c1 9d 3f 06 7c a9 3f 07 c1 80 bf 91 e5 e9 3f
       1.2324551 1.3240974 -1.0058907 1.8273183

l2.bias f4 [8]
000000 4d c3 7f 3f 2d 1d 85 3e f1 02 03 be 7f c4 4a 3f
       0.9990738 0.25998822 -0.12794091 0.7920608
000010 73 90 8c be 0b c2 85 3e 60 a7 4d 3d 2f 7e eb 3e
       -0.27453956 0.26124606 0.05020845 0.45994708

l3.weight f4 [10, 8]
000000 57 2e 5e bf 97 95 d9 3e 52 1b 48 bf 25 0b 10 bf
       -0.8678946 0.4249694 -0.7816669 -0.56267005
000010 52 5b 69 3e 2f 21 e7 3e 36 72 4a 3f 92 6f ba bf
       0.22788742 0.45142505 0.7908052 -1.4565299
000020 ac be 94 3f b9 ef 09 bf fc 98 60 bf 11 e6 fc bf
       1.1620688 -0.5388141 -0.87733436 -1.9757711
000030 b8 f0 38 3d f0 bf 0c 3f 25 ed 9a bf 86 98 b0 3e
       0.045151442 0.54980373 -1.2103621 0.34491366
000040 68 a0 10 3f d1 3c 98 3e cb 8c 00 3f e4 a8 ea bf
       0.5649476 0.297339 0.50214833 -1.8332791
000050 f0 37 0f be c8 a7 84 bd de 9f 46 3f 67 bb 05 bf
       -0.13986182 -0.06477314 0.7758769 -0.5223908
000060 00 7e ad bf 1a 59 f4 bd 14 e4 23 bf 77 10 54 3f
       -1.3554077 -0.11931057 -0.64019895 0.82837623
000070 12 d4 4c 3e a6 ee 8d be 7f 9e f6 bf 71 16 8e bf
       0.20002773 -0.27721137 -1.9267119 -1.1100599
000080 03 b3 16 bf 8d ec 8a bf 7e 21 15 bf e4 72 55 bf
       -0.588669 -1.085344 -0.5825423 -0.83378434
000090 19 9e 8f 3e 56 69 0c 3e 80 ef a6 bf 8a bb 97 3f
       0.28050306 0.13712057 -1.304184 1.1854107
0000a0 3e 96 03 bf 2f 18 48 3f 3f 3f 40 3f 45 22 5d be
       -0.51401126 0.781619 0.75096506 -0.21595104
0000b0 00 e5 f5 3b 38 ff 93 bf 48 42 4b bf a1 e1 8d 3e
       0.0075041056 -1.1562262 -0.7939801 0.27711204
0000c0 43 67 83 bf 0c 21 06 c0 da ec 2a bf b3 c3 31 3f
       -1.0265888 -2.095767 -0.66767657 0.6943924
0000d0 72 21 4f 3e 7a 54 de be 30 32 24 3f 6d 9d bc bf
       0.20227602 -0.43423826 0.6413908 -1.4735543
0000e0 b2 7f af bf a4 c1 93 3e 5c 67 09 3f 1a 5f a8 3e
       -1.3710845 0.28858674 0.5367334 0.32885057
0000f0 e0 0e 4e bd 23 46 bd bf 69 e7 92 3e ed 0e ff bf
       -0.050307155 -1.4787029 0.28692177 -1.992643
000100 ed 1b 71 bf ad 77 4b 3f a7 7b c5 3d 58 c5 d5 bf
       -0.94183236 0.79479486 0.096427254 -1.670085
000110 9a 02 64 be 1a 32 4b 3f 5d 58 49 bf 6c 8b a1 3e
       -0.22266617 0.79373324 -0.78650457 0.31551683
000120 5b ab 6c 3f 35 a5 ca bf f6 01 ec be ef dc 2d 3e
       0.9244897 -1.5831667 -0.46095246 0.1697881
000130 a0 dc af bc 22 ab f3 be 10 de d8 be 44 f2 c0 be
       -0.021467507 -0.475915 -0.4235692 -0.37684834

l3.bias f4 [10]
000000 e1 59 0d 3d f4 86 86 be e4 90 b7 bd 48 5f b2 bd
       0.034509543 -0.26274836 -0.089631826 -0.0870958
000010 7b 34 bd bd e4 0f 18 3e b8 66 f4 bd 73 a5 c1 be
       -0.092385255 0.14849812 -0.119336545 -0.3782154
000020 28 a5 5e bd 25 e2 f0 3e
       -0.054356724 0.47047535
