data/Tasks.pth (torch, 6855 bytes, 6 tensors)

l1.weight f4 [8, 80]
00000000: eb32 513f 6670 fe3d c468 453c 0f42 63be
00000010: 7307 923e c76f f23e 735b 45be d7c2 3dbf
00000020: 753b 223f 6627 373f 0b47 2d3f 7852 353f
00000030: 9ce1 073f 7420 263f 440a 8abd 146e 453f
00000040: 5b47 c23f fa37 56bf d434 6f3f 8239 8dbe
00000050: f50a 7e3d f850 193f 2bb5 57be a36e e0be
00000060: 984c 013f b909 133f b3f8 203f b9de 563f
00000070: 0728 eebe 32e5 8bbe d18b cc3e 1df3 c23d
00000080: 7478 ddbc e82a 89be 439c 89be a76b 9bbe
00000090: 65ff 283f 92e9 33bc 9022 e6bd b1b5 3dbf
000000a0: a431 4c3f 5c17 e8be 2889 b7bd b9c6 4fbe
000000b0: 0ead 7bbe c49a f73e 5598 39be 4815 a7be
000000c0: 6598 773f c80d 353f 8c75 f73e 70c2 ea3e
000000d0: e5f9 15bf ddda 76be 93dd a03d d14e 02bc
000000e0: 1018 35be 78c3 393f c98b 523f eb7d 403f
000000f0: b294 94bd 27f0 0dbe 279d 893f ef75 36bd
00000100: 8914 01be 8085 313f 9ce9 1b3f 3d8c 203f
00000110: 16ec bebc 715a 4d3f bca2 6bbe e020 c63f
00000120: e1f9 5d3f 06c6 2dbf edb6 3dbf da04 90be
00000130: 6ee0 b43e 11cd eb3e 51c3 2cbe 578e 63be
00000140: 4404 30bd f4b9 7d3e afe6 013d bd8d 3d3f
00000150: 8955 373e 6f71 d6bf 78e9 403f 0b57 ec3e
00000160: 1820 3d3e 7d48 e13d 51a0 543e 58d3 103e
00000170: 2776 0a3f c317 203f c108 b23e e874 223f
00000180: 8525 b53f 4655 8d3f c8ed 40bf a690 cc3f
00000190: 4eb4 40be b08a ed3e 7ec7 d33e f2de e7bf
000001a0: ff5c d93e de2e e63e f017 3c3e 536d 523e
000001b0: 8f9a 0a3f 3db2 323f 28e2 c03e 2564 96be
000001c0: 7b43 e33e 7160 173f 3e43 133f d9f0 6bbf
000001d0: 25f9 1c3f 4a68 9fbe 4634 a03e 8b88 fe3e
000001e0: 20b0 62bf 7c15 153f 016b e33e f0b9 9d3e
000001f0: 0383 5bbf f62a 413f 9780 0f3f 6a84 eb3e
00000200: f18f bb3e 96a5 fa3d ee0c 4b3f d597 d6be
00000210: 2a28 a7bf 6e70 083f 1aea da3e 6554 c73f
00000220: af79 143f dd4e 2d3e 7c56 47bf 299b 813e
00000230: 3f7a 9bbe 2ba6 f23e 5d97 b7bf 250e 1f3f
00000240: dbec 483f 3d17 39bf 6446 0e3f d3e5 ad3f
00000250: 30b8 a7bd e018 4fbf bdf7 103f eb45 20bf
00000260: bf04 58bf 2584 993f af80 f73e 4763 d83e
00000270: cce9 cb3e d727 be3e 9228 ce3e 6f62 263f
00000280: e82a b43e 8f70 913e 4685 57bf 49c8 b53d
00000290: bc14 e03e 7a21 0f3f d6f1 903f 0ae1 913f
000002a0: 0eee df3d 675a 2b3e 5b6f f23d dab0 ba3d
000002b0: 9e57 5abf 4483 b5be f899 863f 1328 5dbf
000002c0: f9ab b7bf eee5 543f 0dd2 a8be e44a 99bf
000002d0: e2f6 bbbd aca8 893f 1cbf 763b 0d90 ac3f
000002e0: 1491 7c3f 3faa 893f 87e4 b03d 3480 4c3e
000002f0: 5689 873e 109e 85be 865a 253f 5fe9 acbe
00000300: 1004 a03e 1a3a e73e b213 823e 12ea 363f
00000310: 53b0 7cbf 95b2 f33e ac4b 343e 1d9a 9c3f
00000320: 299d aabe 901d 273f 781b 513e dc8d 95be
00000330: 380e 453f cd47 10bf eb3d bc3e 40cf c23e
00000340: 426b ae3e e5f4 263e 4999 a93f 7754 89bd
00000350: 55ab d33f 3236 9d3e 2739 e13e f9c9 afbf
00000360: b32c 9d3e 92e7 e93d 7198 cfbe 1662 313e
00000370: 7ef3 cc3e 8fec dd3e 41c0 463b 4dc3 e13e
00000380: f92f 403e a67a c4be 08c2 88be 646e c13f
00000390: 85b0 84bf ce3b aebe 45c8 8f3e 8bd6 83be
000003a0: f1c6 c7be 3348 923f 06e5 973f fd32 e2be
000003b0: d4e1 f93e d206 97be 64ce cf3d cd43 c53e
000003c0: 2b10 b23e 376d 153f 5601 8b3f ccfc 353e
000003d0: a826 7b3d 21da 903f fcd4 783f 7ef7 48bf
000003e0: 4095 b6bd 6cce debd 93ad b4bd 832c b4bd
000003f0: 2e80 963f d02c abbe 2a44 703f 30c1 a83f
0.8171832 0.12423782 0.012048904 -0.22193168 0.28521308 0.47350904 -0.19273166 -0.74125427
0.63371974 0.7154449 0.6768653 0.7082896 0.5307863 0.6489327 -0.06740239 0.7712109
1.5178026 -0.83679163 0.93439984 -0.27582937 0.06202217 0.59889174 -0.21065204 -0.4383441
0.505075 0.5743671 0.62879485 0.839336 -0.46514913 -0.273233 0.3995042 0.095190264
-0.027034976 -0.26790547 -0.2687703 -0.3035557 0.660147 -0.0109809805 -0.11237061 -0.74105364
0.79763246 -0.45330322 -0.08961707 -0.2029065 -0.24577734 0.48360264 -0.18124516 -0.32633424
0.9671691 0.70724154 0.4833187 0.4585147 -0.58584434 -0.24106927 0.07854762 -0.007953362
-0.1768496 0.72563887 0.82244545 0.75192136 -0.07254924 -0.13861142 1.0751084 -0.044546064
-0.1260549 0.6934433 0.60903335 0.62713987 -0.023305934 0.8021613 -0.23011297 1.5478783
0.8670941 -0.67880285 -0.7410725 -0.281287 0.35327476 0.4605489 -0.16871382 -0.22222267
-0.042972818 0.24777967 0.031714138 0.740444 0.17903723 -1.6753367 0.75356245 0.4616016
0.18469274 0.11000154 0.20764281 0.14143121 0.54086536 0.6253626 0.34772304 0.63459635
1.4152075 1.1041648 -0.75362825 1.5981643 -0.18818781 0.46394873 0.41363138 -1.8114913
0.42453763 0.44957632 0.18368506 0.20549516 0.5414209 0.6980322 0.37672544 -0.2937328
0.4438742 0.5913153 0.5752448 -0.9216438 0.61317664 -0.31134254 0.3128988 0.4971355
-0.88549995 0.5823591 0.44417575 0.30805922 -0.85746783 0.7545618 0.5605559 0.4599946
0.36633256 0.12238614 0.79316604 -0.41912714 -1.3059132 0.53296554 0.4275673 1.557263
0.57998174 0.16924615 -0.7786634 0.2531369 -0.30366704 0.473924 -1.4343067 0.6213096
0.7848641 -0.72301084 0.5557616 1.3585762 -0.08189428 -0.8089733 0.5662802 -0.62606686
-0.8438224 1.1993452 0.48340365 0.42263243 0.3982681 0.3713977 0.40265328 0.6499395
0.35188985 0.28406188 -0.84187734 0.08876092 0.4376582 0.55910456 1.1323802 1.1396801
0.10934077 0.16733705 0.118376456 0.09115763 -0.85289943 -0.3545171 1.0515738 -0.86389273
-1.4349357 0.83163345 -0.32972756 -1.197598 -0.091779485 1.07546 0.003765053 1.3481461
0.9865887 1.075508 0.08637338 0.1997078 0.26471967 -0.26097155 0.6459125 -0.33771798
0.312531 0.45161515 0.2540565 0.7145091 -0.9870655 0.47597185 0.17606992 1.2234532
-0.3332303 0.65279484 0.20420635 -0.29209793 0.7697482 -0.5635956 0.3676599 0.38048744
0.34066206 0.16304357 1.3249904 -0.067055635 1.6536661 0.3070541 0.43988916 -1.3733512
0.30698165 0.11421122 -0.4054599 0.17322573 0.4002952 0.43344542 0.0030326995 0.44094315
0.187683 -0.38374823 -0.26710534 1.5111814 -1.036637 -0.34030002 0.2808248 -0.2574962
-0.39018968 1.1428283 1.1866767 -0.44179526 0.48805106 -0.2949739 0.10146788 0.3852829
0.3477796 0.58369774 1.0859783 0.17772216 0.061316162 1.1316568 0.9719999 -0.78502643
-0.08915186 -0.108792156 -0.08822169 -0.087975524 1.1757867 -0.33432627 0.9385401 1.3183956

l1.bias f4 [8]
00000000: f7be 3d3f 2500 af3f a23c bf3f 7ded 483f
00000010: 5d71 7c3f f428 4b3f 298c b63f 89b1 a53f
0.74119514 1.3671919 1.4940379 0.7848738 0.9861048 0.79359365 1.4261523 1.2944804

l2.weight f4 [8, 8]
00000000: 0180 0040 3d62 4540 67ca a3bf 6e58 9a3e
00000010: 21cf 3140 3d91 e33e 1385 9cbe c566 773f
00000020: 06ac 0840 d6db dcbf 4537 a63f 26a0 bfbf
00000030: 0018 b83f 4fa0 d63f 3b41 853f c4f5 da3f
00000040: dabb 843e b2b4 273d c904 5a3f 48e5 c23f
00000050: afa8 903f 8579 0a40 0153 1d40 2ef3 84bf
00000060: bc38 8ebe c07b efbd a64b 46be 064b 343e
00000070: adc8 a83e 9b6e 85be a0b2 5bbc 13ca a6be
00000080: 76cf 6bbe 548d 94be 0a18 59be ff51 06be
00000090: 1b26 18be befa 12be 44ef 35be 0acf 7ebe
000000a0: b897 5abf 86f2 1940 0fd4 0d40 279a 0fc0
000000b0: 6a5b 0f3e bb14 4b3e 96b7 2e3d 3602 a4be
000000c0: 5211 9fbf b9ba 8a3f 1b2f b83f 6fa6 eb3f
000000d0: 9f8c e7bf ceef 273f 3cff a23f efa4 e5bf
000000e0: 56e0 39bf f30a 25bf ffea dd3f 8633 9c3e
000000f0: b67d 46be 161e 37c0 8f66 e43f 1012 0c40
2.0078127 3.084121 -1.2796143 0.30145591 2.7782671 0.44446746 -0.30570278 0.9664119
2.1354995 -1.7254589 1.2985617 -1.4970748 1.4382324 1.6767672 1.0410532 1.7106252
0.2592457 0.04094381 0.8516355 1.5226221 1.1301478 2.163667 2.4581912 -1.0386713
-0.2777766 -0.11693525 -0.19364795 0.17606744 0.32965603 -0.26060948 -0.013409287 -0.32576045
-0.23028359 -0.29014075 -0.21200576 -0.13117217 -0.14858286 -0.14353463 -0.17767054 -0.24883667
-0.85387754 2.4054275 2.216068 -2.2437837 0.13999715 0.19832127 0.04265555 -0.32032937
-1.2427161 1.0838233 1.4389375 1.8410167 -1.8089789 0.6560029 1.2734141 -1.7940959
-0.72607934 -0.6446983 1.733734 0.3050806 -0.19383892 -2.8612113 1.7843798 2.1886024

l2.bias f4 [8]
00000000: 1b95 753f c5be 103e 8ec0 8abe 0cd5 b8bd
00000010: ec79 a3bd 87f7 7d3f dfff 073e 4ccd b33f
0.9593064 0.14135273 -0.27100033 -0.090250105 -0.07982239 0.9920582 0.13281201 1.4047027

l3.weight f4 [19, 8]
00000000: 4f6c 6fbf 3c3c 9d3e cd4e f43e cac6 b2be
00000010: 3881 56bd c663 dabf aa55 0bc0 8836 103f
00000020: c9b6 c43e b84a 083f 988a 0fbf e381 74be
00000030: 4dc5 933e 0915 a1bf 5a69 2dc0 d1c1 f6be
00000040: fd69 f33e 1363 f6be 4fce 2d3f 90c8 b73d
00000050: 80ca cf3b add4 b7bf c0f8 c6bc 04bc 07c0
00000060: e551 433f 2bc4 3b3e bdf3 71bf 78b4 2cbe
00000070: 7d3b 873e bff5 4e3e 3ff1 2ec0 01b4 2fc0
00000080: c9a5 44be c996 5f3f 4cb4 df3e 8244 49be
00000090: 8889 10bd a629 17c0 73d9 cabf d563 06c0
000000a0: f8f8 443f ef76 1fc0 77e8 9bbf ec50 5abe
000000b0: 6900 883e 07f1 4d3f 613c 34c0 d78b 90be
000000c0: dbdf ba3d a4bf 69bf 9fd1 e6be 3a49 773e
000000d0: 3afc 243e 977b 873f 2bd5 9f3e 8ca1 c2bf
000000e0: 7f62 45c0 b441 d6bd 0f95 e53b e8f1 96be
000000f0: 7538 913e 29d7 8bbe 0351 95be 27d7 723f
00000100: cb89 1abf c5ae 2e3e 769b 333e 5cab 94be
00000110: f87a 33be b42e 8a3c c86d e6be 683e dabe
00000120: 344f f8bf 5aaf 1a3d f56c 423f 1970 61be
00000130: f3a3 31be 7a01 d2be 0838 ee3e d152 79bf
00000140: 8f81 6abe 4e6a 9cbe 6bbb a1be 720f 2b3e
00000150: 42c1 7dbe 5ca4 5c3f c7bf 45c0 fd02 9a3e
00000160: 5ecb 03c0 996a 8d3e fb0b b5bf e060 04bd
00000170: 00dc 54bb eb11 453f 1b6d 03c0 65ec 983f
00000180: 33c4 9abf 646b 0cc0 2477 003f b00c cc3d
00000190: 4dcc abbe f08e cf3e fc9e 003f 90ce 25bf
000001a0: 8ccb 7fbd 7a58 f3bf 463b 9dbd 6ca3 0d3e
000001b0: be62 753e 38a0 f4be bbd5 993e 3c56 2a3a
000001c0: 69a3 573f b3ca 0bc0 5063 c33e 75a8 1cbe
000001d0: 98df b7bd a456 143f 9eae acbf 5198 66c0
000001e0: 0894 73be 2175 3e3f fdca 21c0 0386 6dbe
000001f0: 855a 39be a5de 3fbf 1924 e5bf 6adc 3c3f
00000200: af3f ebbd 1780 723e 9cd1 f33e 7a9c 86be
00000210: 32e8 123e af12 ed3e 41bf 02c0 f10a 04c0
00000220: bd3c 373f 84dd b8bf d42d b5bb f033 fb3c
00000230: 2188 993e 260e 15c0 9a4a 10c0 baf6 183f
00000240: 5a3a cbbf fcc3 28bf ffd4 cdbe 0261 15be
00000250: a253 053e 48f8 7c3f 0b4e 4c3e 749e cb3e
-0.9352464 0.30710018 0.4771637 -0.3491729 -0.052369326 -1.7061698 -2.1771035 0.5633321
0.38420704 0.5323901 -0.5607085 -0.23877673 0.28861466 -1.2584544 -2.7095551 -0.48194745
0.475418 -0.48122463 0.67892927 0.08973801 0.0063412786 -1.4361778 -0.024288535 -2.1208506
0.76296836 0.18336551 -0.9451254 -0.16865718 0.26412573 0.20210932 -2.7334745 -2.7453616
-0.19203867 0.87339455 0.43692243 -0.1965504 -0.03528741 -2.361917 -1.584761 -2.0998433
0.76942396 -2.4916341 -1.2180318 -0.21319932 0.26562813 0.80445904 -2.8161852 -0.2823169
0.09124728 -0.91308045 -0.45081803 0.24149027 0.16111842 1.0584592 0.31217322 -1.520555
-3.0841367 -0.104617506 0.0070062946 -0.29481435 0.28363386 -0.27312592 -0.2916337 0.94859546
-0.60366505 0.17058857 0.17539772 -0.29036987 -0.17527378 0.016867973 -0.4500563 -0.42625737
-1.9399171 0.037764885 0.75947505 -0.22015418 -0.17347698 -0.41016752 0.46527123 -0.9739199
-0.22900985 -0.30549854 -0.315883 0.1670511 -0.24780753 0.8618829 -3.0898302 0.30080405
-2.0592875 0.2762039 -1.4144281 -0.03231895 -0.0032479763 0.76980466 -2.0535343 1.1947142
-1.2091125 -2.1940546 0.50181794 0.099633574 -0.33554307 0.4053874 0.5024259 -0.64768314
-0.062449977 -1.9011376 -0.07677321 0.13831872 0.23963448 -0.47778487 0.30045876 0.0006497835
0.8423372 -2.1842468 0.38161707 -0.15298636 -0.08978194 0.57944703 -1.3490789 -3.6030467
-0.23786938 0.74397475 -2.5280144 -0.23195653 -0.18100937 -0.74949104 -1.7901641 0.73773825
-0.11486756 0.23681675 0.47620857 -0.26291257 0.14346388 0.46303317 -2.0429232 -2.0631678
0.71577054 -1.4442601 -0.005529145 0.030664414 0.2998667 -2.3289886 -2.2545533 0.59751475
-1.5877182 -0.6592405 -0.40201566 -0.14587787 0.13020185 0.9881635 0.19951646 0.39769328

l3.bias f4 [19]
00000000: faaf 7e3e c0d1 99be 1ab9 58be 71d3 05be
00000010: f51b e2bd b1a5 cd3e 0868 823e 39fc 41be
00000020: 0284 4dbf 0660 9c3e 8bd1 863e 92f1 9f3e
00000030: 8f4f 5fbf 8099 b53e dec7 113e beca 513e
00000040: 806a 30be ef65 d13e eeeb bdbd
0.24871817 -0.3004284 -0.2116436 -0.1306894 -0.11040489 0.40165475 0.25469995 -0.18943872
-0.8027955 0.3054201 0.26331744 0.3123899 -0.8723077 0.35468674 0.142364 0.20487496
-0.17228127 0.40898082 -0.09273516
